…
t_type":"stream"}],"execution_count":15},{"cell_type":"code","source":"roberta_model","metadata":{"trusted":true,"execution":{"iopub.status.busy":"2025-02-04T07:50:41.151114Z","iopub.execute_input":"2025-02-04T07:50:41.151410Z","iopub.status.idle":"2025-02-04T07:50:41.157454Z","shell.execute_reply.started":"2025-02-04T07:50:41.151389Z","shell.execute_reply":"2025-02-04T07:50:41.156673Z"},"collapsed":true,"jupyter":{"outputs_hidden":true}},"outputs":[{"execution_count":19,"output_type":"execute_result","data":{"text/plain":"RobertaModel(\n  (embeddings): RobertaEmbeddings(\n    (word_embeddings): Embedding(32000, 768, padding_idx=1)\n    (position_embeddings): Embedding(514, 768, padding_idx=1)\n    (token_type_embeddings): Embedding(1, 768)\n    (LayerNorm): LayerNorm((768,), eps=1e-05, elementwise_affine=True)\n    (dropout): Dropout(p=0.1, inplace=False)\n  )\n  (encoder): RobertaEncoder(\n    (layer): ModuleList(\n      (0-11): 12 x RobertaLayer(\n        (attention): RobertaAttention(\n          (self): RobertaSdpaSelfAttention(\n            (query): Linear(in_features=768, out_features=768, bias=True)\n            (key): Linear(in_features=768, out_features=768, bias=True)\n            (value): Linear(in_features=768, out_features=768, bias=True)\n            (dropout): Dropout(p=0.1, inplace=False)\n          )\n          (output): RobertaSelfOutput(\n            (dense): Linear(in_features=768, out_features=768, bias=True)\n            (LayerNorm): LayerNorm((768,), eps=1e-05, elementwise_affine=True)\n            (dropout): Dropout(p=0.1, inplace=False)\n          )\n        )\n        (intermediate): RobertaIntermediate(\n          (dense): Linear(in_features=768, out_features=3072, bias=True)\n          (intermediate_act_fn): GELUActivation()\n        )\n        (output): RobertaOutput(\n          (dense): Linear(in_features=3072, out_features=768, bias=True)\n          (LayerNorm): LayerNorm((768,), eps=1e-05, elementwise_affine=True)\n          (dropout): Dropout(p=0.1, inplace=False)\n        )\n      )\n    )\n  )\n  (pooler): RobertaPooler(\n    (dense): Linear(in_features=768, out_features=768, bias=True)\n    (activation): Tanh()\n  )\n)"},"metadata":{}}],"execution_count":19},{"cell_type":"code","source":"# 바디와 헤드가 포함된 모델\n# https://huggingface.co/SamLowe/roberta-base-go_emotions\nfrom transformers import AutoModelForSequenceClassification\nroberta_go_emotions_model = AutoModelForSequenceClassification.from_pretrained(\"SamLowe/roberta-base-go_emotion
…
urce":"roberta_go_emotions_model","metadata":{"trusted":true,"execution":{"iopub.status.busy":"2025-02-04T07:50:54.662808Z","iopub.execute_input":"2025-02-04T07:50:54.663093Z","iopub.status.idle":"2025-02-04T07:50:54.669139Z","shell.execute_reply.started":"2025-02-04T07:50:54.663073Z","shell.execute_reply":"2025-02-04T07:50:54.668478Z"},"collapsed":true,"jupyter":{"outputs_hidden":true}},"outputs":[{"execution_count":20,"output_type":"execute_result","data":{"text/plain":"RobertaForSequenceClassification(\n  (roberta): RobertaModel(\n    (embeddings): RobertaEmbeddings(\n      (word_embeddings): Embedding(50265, 768, padding_idx=1)\n      (position_embeddings): Embedding(514, 768, padding_idx=1)\n      (token_type_embeddings): Embedding(1, 768)\n      (LayerNorm): LayerNorm((768,), eps=1e-05, elementwise_affine=True)\n      (dropout): Dropout(p=0.1, inplace=False)\n    )\n    (encoder): RobertaEncoder(\n      (layer): ModuleList(\n        (0-11): 12 x RobertaLayer(\n          (attention): RobertaAttention(\n            (self): RobertaSdpaSelfAttention(\n              (query): Linear(in_features=768, out_features=768, bias=True)\n              (key): Linear(in_features=768, out_features=768, bias=True)\n              (value): Linear(in_features=768, out_features=768, bias=True)\n              (dropout): Dropout(p=0.1, inplace=False)\n            )\n            (output): RobertaSelfOutput(\n              (dense): Linear(in_features=768, out_features=768, bias=True)\n              (LayerNorm): LayerNorm((768,), eps=1e-05, elementwise_affine=True)\n              (dropout): Dropout(p=0.1, inplace=False)\n            )\n          )\n          (intermediate): RobertaIntermediate(\n            (dense): Linear(in_features=768, out_features=3072, bias=True)\n            (intermediate_act_fn): GELUActivation()\n          )\n          (output): RobertaOutput(\n            (dense): Linear(in_features=3072, out_features=768, bias=True)\n            (LayerNorm): LayerNorm((768,), eps=1e-05, elementwise_affine=True)\n            (dropout): Dropout(p=0.1, inplace=False)\n          )\n        )\n      )\n    )\n  )\n  (classifier): RobertaClassificationHead(\n    (dense): Linear(in_features=768, out_features=768, bias=True)\n    (dropout): Dropout(p=0.1, inplace=False)\n    (out_proj): Linear(in_features=768, out_features=28, bias=True)\n  )\n)"},"metadata":{}}],"execution_count":20},{"cell_type":"code","source":"# 헤드에 없는 모델을 목적에 의해 불러오기\nroberta_classification_model = AutoModelForSequenceClassification.from_pretrained('klue/roberta-base')","metadata":{"trusted":true,"execution":{"iopub.status.busy":"2025-02-04T07:53:33.195492Z","iopub.execute_input":"2025-02-04T07:53:33.195803Z","iopu
…
}],"execution_count":23},{"cell_type":"code","source":"roberta_classification_model","metadata":{"trusted":true,"execution":{"iopub.status.busy":"2025-02-04T07:53:29.657822Z","iopub.execute_input":"2025-02-04T07:53:29.658115Z","iopub.status.idle":"2025-02-04T07:53:29.664055Z","shell.execute_reply.started":"2025-02-04T07:53:29.658093Z","shell.execute_reply":"2025-02-04T07:53:29.663277Z"}},"outputs":[{"execution_count":22,"output_type":"execute_result","data":{"text/plain":"RobertaForSequenceClassification(\n  (roberta): RobertaModel(\n    (embeddings): RobertaEmbeddings(\n      (word_embeddings): Embedding(32000, 768, padding_idx=1)\n      (position_embeddings): Embedding(514, 768, padding_idx=1)\n      (token_type_embeddings): Embedding(1, 768)\n      (LayerNorm): LayerNorm((768,), eps=1e-05, elementwise_affine=True)\n      (dropout): Dropout(p=0.1, inplace=False)\n    )\n    (encoder): RobertaEncoder(\n      (layer): ModuleList(\n        (0-11): 12 x RobertaLayer(\n          (attention): RobertaAttention(\n            (self): RobertaSdpaSelfAttention(\n              (query): Linear(in_features=768, out_features=768, bias=True)\n              (key): Linear(in_features=768, out_features=768, bias=True)\n              (value): Linear(in_features=768, out_features=768, bias=True)\n              (dropout): Dropout(p=0.1, inplace=False)\n            )\n            (output): RobertaSelfOutput(\n              (dense): Linear(in_features=768, out_features=768, bias=True)\n              (LayerNorm): LayerNorm((768,), eps=1e-05, elementwise_affine=True)\n              (dropout): Dropout(p=0.1, inplace=False)\n            )\n          )\n          (intermediate): RobertaIntermediate(\n            (dense): Linear(in_features=768, out_features=3072, bias=True)\n            (intermediate_act_fn): GELUActivation()\n          )\n          (output): RobertaOutput(\n            (dense): Linear(in_features=3072, out_features=768, bias=True)\n            (LayerNorm): LayerNorm((768,), eps=1e-05, elementwise_affine=True)\n            (dropout): Dropout(p=0.1, inplace=False)\n          )\n        )\n      )\n    )\n  )\n  (classifier): RobertaClassificationHead(\n    (dense): Linear(in_features=768, out_features=768, bias=True)\n    (dropout): Dropout(p=0.1, inplace=False)\n    (out_proj): Linear(in_features=768, out_features=2, bias=True)\n  )\n)"},"metadata":{}}],"execution_count":22},{"cell_type":"code","source":"","metadata":{"trusted":true},"outputs":[],"execution_count":null}]}