…
     "iopub.status.busy": "2025-02-04T07:55:27.326476Z",
     "iopub.status.idle": "2025-02-04T07:55:27.331986Z",
     "shell.execute_reply": "2025-02-04T07:55:27.331181Z"
    },
    "jupyter": {
     "outputs_hidden": true
    },
    "papermill": {
     "duration": 0.012122,
     "end_time": "2025-02-04T07:55:27.333343",
     "exception": false,
     "start_time": "2025-02-04T07:55:27.321221",
     "status": "completed"
    },
    "tags": []
   },
   "outputs": [
    {
     "data": {
      "text/plain": [
       "RobertaModel(\n",
       "  (embeddings): RobertaEmbeddings(\n",
       "    (word_embeddings): Embedding(32000, 768, padding_idx=1)\n",
       "    (position_embeddings): Embedding(514, 768, padding_idx=1)\n",
       "    (token_type_embeddings): Embedding(1, 768)\n",
       "    (LayerNorm): LayerNorm((768,), eps=1e-05, elementwise_affine=True)\n",
       "    (dropout): Dropout(p=0.1, inplace=False)\n",
       "  )\n",
       "  (encoder): RobertaEncoder(\n",
       "    (layer): ModuleList(\n",
       "      (0-11): 12 x RobertaLayer(\n",
       "        (attention): RobertaAttention(\n",
       "          (self): RobertaSdpaSelfAttention(\n",
       "            (query): Linear(in_features=768, out_features=768, bias=True)\n",
       "            (key): Linear(in_features=768, out_features=768, bias=True)\n",
       "            (value): Linear(in_features=768, out_features=768, bias=True)\n",
       "            (dropout): Dropout(p=0.1, inplace=False)\n",
       "          )\n",
       "          (output): RobertaSelfOutput(\n",
       "            (dense): Linear(in_features=768, out_features=768, bias=True)\n",
       "            (LayerNorm): LayerNorm((768,), eps=1e-05, elementwise_affine=True)\n",
       "            (dropout): Dropout(p=0.1, inplace=False)\n",
       "          )\n",
       "        )\n",
       "        (intermediate): RobertaIntermediate(\n",
       "          (dense): Linear(in_features=768, out_features=3072, bias=True)\n",
       "          (intermediate_act_fn): GELUActivation()\n",
       "        )\n",
       "        (output): RobertaOutput(\n",
       "          (dense): Linear(in_features=3072, out_features=768, bias=True)\n",
       "          (LayerNorm): LayerNorm((768,), eps=1e-05, elementwise_affine=True)\n",
       "          (dropout): Dropout(p=0.1, inplace=False)\n",
       "        )\n",
       "      )\n",
       "    )\n",
       "  )\n",
       "  (pooler): RobertaPooler(\n",
       "    (dense): Linear(in_features=768, out_features=768, bias=True)\n",
       "    (activation): Tanh()\n",
       "  )\n",
       ")"
      ]
     },
     "execution_count": 9,
     "metadata": {},
     "output_type": "execute_result"
    }
   ],
   "source": [
    "roberta_model"
   ]
  },
  {
   "cell_type": "code",
   "execution_count": 10,
   "id": "6d846315",
   "metadata": {
    "execution": {
     "iopub.execute_input": "2025-02-04T07:55:27.343581Z",
…
     "iopub.status.idle": "2025-02-04T07:55:29.875215Z",
     "shell.execute_reply": "2025-02-04T07:55:29.874394Z"
    },
    "jupyter": {
     "outputs_hidden": true
    },
    "papermill": {
     "duration": 0.013846,
     "end_time": "2025-02-04T07:55:29.876508",
     "exception": false,
     "start_time": "2025-02-04T07:55:29.862662",
     "status": "completed"
    },
    "tags": []
   },
   "outputs": [
    {
     "data": {
      "text/plain": [
       "RobertaForSequenceClassification(\n",
       "  (roberta): RobertaModel(\n",
       "    (embeddings): RobertaEmbeddings(\n",
       "      (word_embeddings): Embedding(50265, 768, padding_idx=1)\n",
       "      (position_embeddings): Embedding(514, 768, padding_idx=1)\n",
       "      (token_type_embeddings): Embedding(1, 768)\n",
       "      (LayerNorm): LayerNorm((768,), eps=1e-05, elementwise_affine=True)\n",
       "      (dropout): Dropout(p=0.1, inplace=False)\n",
       "    )\n",
       "    (encoder): RobertaEncoder(\n",
       "      (layer): ModuleList(\n",
       "        (0-11): 12 x RobertaLayer(\n",
       "          (attention): RobertaAttention(\n",
       "            (self): RobertaSdpaSelfAttention(\n",
       "              (query): Linear(in_features=768, out_features=768, bias=True)\n",
       "              (key): Linear(in_features=768, out_features=768, bias=True)\n",
       "              (value): Linear(in_features=768, out_features=768, bias=True)\n",
       "              (dropout): Dropout(p=0.1, inplace=False)\n",
       "            )\n",
       "            (output): RobertaSelfOutput(\n",
       "              (dense): Linear(in_features=768, out_features=768, bias=True)\n",
       "              (LayerNorm): LayerNorm((768,), eps=1e-05, elementwise_affine=True)\n",
       "              (dropout): Dropout(p=0.1, inplace=False)\n",
       "            )\n",
       "          )\n",
       "          (intermediate): RobertaIntermediate(\n",
       "            (dense): Linear(in_features=768, out_features=3072, bias=True)\n",
       "            (intermediate_act_fn): GELUActivation()\n",
       "          )\n",
       "          (output): RobertaOutput(\n",
       "            (dense): Linear(in_features=3072, out_features=768, bias=True)\n",
       "            (LayerNorm): LayerNorm((768,), eps=1e-05, elementwise_affine=True)\n",
       "            (dropout): Dropout(p=0.1, inplace=False)\n",
       "          )\n",
       "        )\n",
       "      )\n",
       "    )\n",
       "  )\n",
       "  (classifier): RobertaClassificationHead(\n",
       "    (dense): Linear(in_features=768, out_features=768, bias=True)\n",
       "    (dropout): Dropout(p=0.1, inplace=False)\n",
       "    (out_proj): Linear(in_features=768, out_features=28, bias=True)\n",
       "  )\n",
       ")"
      ]
     },
     "execution_count": 11,
     "metadata": {},
     "output_type": "execute_result"
    }
   ],
   "source": [
    "roberta_go_emotions_model"
   ]
  },
  {
   "cell_type": "code",
   "execution_count": 12,
   "id": "b9fd1f60",
   "metadata": {
    "execution": {
     "iopub.execute_input": "2025-02-04T07:55:29.887073Z",
…
     "iopub.status.busy": "2025-02-04T07:55:30.089696Z",
     "iopub.status.idle": "2025-02-04T07:55:30.095315Z",
     "shell.execute_reply": "2025-02-04T07:55:30.094519Z"
    },
    "papermill": {
     "duration": 0.012815,
     "end_time": "2025-02-04T07:55:30.096585",
     "exception": false,
     "start_time": "2025-02-04T07:55:30.083770",
     "status": "completed"
    },
    "tags": []
   },
   "outputs": [
    {
     "data": {
      "text/plain": [
       "RobertaForSequenceClassification(\n",
       "  (roberta): RobertaModel(\n",
       "    (embeddings): RobertaEmbeddings(\n",
       "      (word_embeddings): Embedding(32000, 768, padding_idx=1)\n",
       "      (position_embeddings): Embedding(514, 768, padding_idx=1)\n",
       "      (token_type_embeddings): Embedding(1, 768)\n",
       "      (LayerNorm): LayerNorm((768,), eps=1e-05, elementwise_affine=True)\n",
       "      (dropout): Dropout(p=0.1, inplace=False)\n",
       "    )\n",
       "    (encoder): RobertaEncoder(\n",
       "      (layer): ModuleList(\n",
       "        (0-11): 12 x RobertaLayer(\n",
       "          (attention): RobertaAttention(\n",
       "            (self): RobertaSdpaSelfAttention(\n",
       "              (query): Linear(in_features=768, out_features=768, bias=True)\n",
       "              (key): Linear(in_features=768, out_features=768, bias=True)\n",
       "              (value): Linear(in_features=768, out_features=768, bias=True)\n",
       "              (dropout): Dropout(p=0.1, inplace=False)\n",
       "            )\n",
       "            (output): RobertaSelfOutput(\n",
       "              (dense): Linear(in_features=768, out_features=768, bias=True)\n",
       "              (LayerNorm): LayerNorm((768,), eps=1e-05, elementwise_affine=True)\n",
       "              (dropout): Dropout(p=0.1, inplace=False)\n",
       "            )\n",
       "          )\n",
       "          (intermediate): RobertaIntermediate(\n",
       "            (dense): Linear(in_features=768, out_features=3072, bias=True)\n",
       "            (intermediate_act_fn): GELUActivation()\n",
       "          )\n",
       "          (output): RobertaOutput(\n",
       "            (dense): Linear(in_features=3072, out_features=768, bias=True)\n",
       "            (LayerNorm): LayerNorm((768,), eps=1e-05, elementwise_affine=True)\n",
       "            (dropout): Dropout(p=0.1, inplace=False)\n",
       "          )\n",
       "        )\n",
       "      )\n",
       "    )\n",
       "  )\n",
       "  (classifier): RobertaClassificationHead(\n",
       "    (dense): Linear(in_features=768, out_features=768, bias=True)\n",
       "    (dropout): Dropout(p=0.1, inplace=False)\n",
       "    (out_proj): Linear(in_features=768, out_features=2, bias=True)\n",
       "  )\n",
       ")"
      ]
     },
     "execution_count": 13,
     "metadata": {},
     "output_type": "execute_result"
    }
   ],
   "source": [
    "roberta_classification_model"
   ]
  },
  {
   "cell_type": "code",
   "execution_count": null,
   "id": "c133dd61",
   "metadata": {
    "papermill": {
     "duration": 0.005185,
     "end_time": "2025-02-04T07:55:30.106920",
…
